…
13  somewhere   1
</code></pre>

<p>So when I compute the similarity between 'phone' and 'iphone', I get a nonzero value.</p>

<pre class=""lang-py prettyprint-override""><code>sim_match.model.similarity('phone','iphone')
&gt;&gt; 0.33964303
</code></pre>

<p>But at the index 3,9 of matrix (the similarity of 'phone' and 'iphone' in the similarity matrix), I get a zero entry.</p>

<pre class=""lang-py prettyprint-override""><code>matrix[3,9]
&gt;&gt; 0.0
</code></pre>

<p>As a matter of fact, almost all entries are zero.</p>

<pre class=""lang-py prettyprint-override""><code>print(matrix)
&gt;&gt;  (0, 0)        1.0
&gt;&gt;  (1, 1)        1.0
&gt;&gt;  (2, 2)        1.0
&gt;&gt;  (3, 3)        1.0
&gt;&gt;  (4, 4)        1.0
&gt;&gt;  (5, 5)        1.0
&gt;&gt;  (6, 6)        1.0
&gt;&gt;  (7, 7)        1.0
&gt;&gt;  (11, 7)       0.21569395
&gt;&gt;  (8, 8)        1.0
&gt;&gt;  (9, 9)        1.0
&gt;&gt;  (10, 10)      1.0
&gt;&gt;  (11, 11)      1.0
&gt;&gt;  (7, 11)       0.21569395
&gt;&gt;  (12, 12)      1.0
&gt;&gt;  (13, 13)      1.0
</code></pre>

<p>Only the words 'lost' and 'missing' have a nonzero similarity and aren't equivalent.</p>

<p>I do know that the matrix is a numpy sparse matrix. Maybe its the parameters I'm passing, but I am confused as to why most of the elements in the matrix are zero. The parameters I passed, based on the documentation, seem that they shouldn't be causing so many entries to be 0. I do note that the nonzero_limit is 100, but shouldn't there be a hundred nonzero entries?</p>
…
<p>How would I go about doing this?  I assume that the matrix from TfidfTransformer.fit_transform() is a matrix of tfidf scores for each word in an array of documents like:</p>

<pre><code>  [[.1234, .234, .345], # document 1
  [.098, .987, .876],   # document 2
 [.555, .666, .777]]    # document 3
</code></pre>

<p>If that's the case, I can just replace every word with it's score and feed that matrix into the classifier. But I can't really tell because there's a lot of stuff going on under the hood that I can't see.</p>

<p>Edit:  I was able to print the first entry of the numpy array, which is itself a numpy array, so I printed the first entry of that and got: </p>

<pre><code> (0, 3911)     0.22756829025
 (0, 3826)     0.161385996776
 (0, 3815)     0.100930582918
 (0, 3627)     0.158255401295
 (0, 3621)     0.194939740341
 (0, 3620)     0.100757250634
 (0, 3527)     0.0734744409855
 (0, 3246)     0.109635312627
</code></pre>

<p>The column on the left must be tfidf scores but I'm not sure what the right is.  I assume wordids and the document id?</p>
","3951468","","3951468","","2015-11-28 08:14:59","2015-11-28 08:14:59","Fit Gensim LDA into SciKit Naive Bayes classifier","<python><scikit-learn><gensim>","0","6","2","","","CC BY-SA 3.0"
"48994062","1","48994438","","2018-02-26 17:37:19","","1","1891","<p>What I have achieved so far are models that can not be read by a person. I need to save the model as plain text to use it with a certain software, which requires that the model be this way.</p>
…
